…
   "execution_count": 63,
   "id": "05e29e9e",
   "metadata": {},
   "outputs": [
    {
     "name": "stdout",
     "output_type": "stream",
     "text": [
      "Model: \"CNN1\"\n",
      "_________________________________________________________________\n",
      " Layer (type)                Output Shape              Param #   \n",
      "=================================================================\n",
      " input_7 (InputLayer)        [(None, 28, 28, 1)]       0         \n",
      "                                                                 \n",
      " conv2d_1 (Conv2D)           (None, 26, 26, 32)        320       \n",
      "                                                                 \n",
      " max_pooling2d (MaxPooling2D  (None, 13, 13, 32)       0         \n",
      " )                                                               \n",
      "                                                                 \n",
      " conv2d_2 (Conv2D)           (None, 11, 11, 64)        18496     \n",
      "                                                                 \n",
      " max_pooling2d_1 (MaxPooling  (None, 5, 5, 64)         0         \n",
      " 2D)                                                             \n",
      "                                                                 \n",
      " conv2d_3 (Conv2D)           (None, 3, 3, 32)          18464     \n",
      "                                                                 \n",
      " flatten_1 (Flatten)         (None, 288)               0         \n",
      "                                                                 \n",
      " dense_22 (Dense)            (None, 64)                18496     \n",
      "                                                                 \n",
      " dropout_2 (Dropout)         (None, 64)                0         \n",
      "                                                                 \n",
      " dense_23 (Dense)            (None, 10)                650       \n",
      "                                                                 \n",
      "=================================================================\n",
      "Total params: 56,426\n",
      "Trainable params: 56,426\n",
      "Non-trainable params: 0\n",
      "_________________________________________________________________\n"
     ]
    },
    {
     "data": {
      "image/png": "…\n",
…
